…
```https://www.kaggle.com/c/dog-breed-identification```
* Download the dog dataset
```wget https://s3-us-west-1.amazonaws.com/udacity-aind/dog-project/dogImages.zip```
* Download the human dataset
```wget https://s3-us-west-1.amazonaws.com/udacity-aind/dog-project/lfw.zip```

### 1.3 Nural Network Structures and evaluation

#### 1.3.1 Self made network 1

```
Model: "model_1"
_________________________________________________________________
Layer (type)                 Output Shape              Param #   
=================================================================
input_2 (InputLayer)         (None, 224, 224, 3)       0         
_________________________________________________________________
conv2d_1 (Conv2D)            (None, 223, 223, 16)      208       
_________________________________________________________________
max_pooling2d_2 (MaxPooling2 (None, 111, 111, 16)      0         
_________________________________________________________________
conv2d_2 (Conv2D)            (None, 110, 110, 32)      2080      
_________________________________________________________________
max_pooling2d_3 (MaxPooling2 (None, 55, 55, 32)        0         
_________________________________________________________________
conv2d_3 (Conv2D)            (None, 54, 54, 64)        8256      
_________________________________________________________________
max_pooling2d_4 (MaxPooling2 (None, 27, 27, 64)        0         
_________________________________________________________________
global_average_pooling2d_1 ( (None, 64)                0         
_________________________________________________________________
dense_1 (Dense)              (None, 133)               8645      
=================================================================
Total params: 19,189
Trainable params: 19,189
Non-trainable params: 0
_________________________________________________________________
```
-----

​	After trained for **20 epochs**, training accuracy is **5.76%**, testing accuracy is only **5.86%**.

#### 1.3.2. Self made network 2
```
Model: "model_2"
__________________________________________________________________________________________________
Layer (type)                    Output Shape         Param #     Connected to                     
==================================================================================================
input_3 (InputLayer)            (None, 224, 224, 3)  0                                            
__________________________________________________________________________________________________
conv2d_4 (Conv2D)               (None, 224, 224, 4)  304         input_3[0][0]                    
__________________________________________________________________________________________________
max_pooling2d_5 (MaxPooling2D)  (None, 112, 112, 4)  0           conv2d_4[0][0]                   
__________________________________________________________________________________________________
conv2d_5 (Conv2D)               (None, 56, 56, 4)    148         max_pooling2d_5[0][0]            
__________________________________________________________________________________________________
conv2d_6 (Conv2D)               (None, 56, 56, 8)    40          conv2d_5[0][0]                   
__________________________________________________________________________________________________
conv2d_8 (Conv2D)               (None, 56, 56, 8)    40          conv2d_5[0][0]                   
__________________________________________________________________________________________________
max_pooling2d_6 (MaxPooling2D)  (None, 56, 56, 4)    0           conv2d_5[0][0]                   
__________________________________________________________________________________________________
conv2d_7 (Conv2D)               (None, 56, 56, 8)    584         conv2d_6[0][0]                   
__________________________________________________________________________________________________
conv2d_9 (Conv2D)               (None, 56, 56, 8)    1608        conv2d_8[0][0]                   
__________________________________________________________________________________________________
conv2d_10 (Conv2D)              (None, 56, 56, 8)    40          max_pooling2d_6[0][0]            
__________________________________________________________________________________________________
concatenate_1 (Concatenate)     (None, 56, 56, 24)   0           conv2d_7[0][0]                   
                                                                 conv2d_9[0][0]                   
                                                                 conv2d_10[0][0]                  
__________________________________________________________________________________________________
max_pooling2d_7 (MaxPooling2D)  (None, 28, 28, 24)   0           concatenate_1[0][0]              
__________________________________________________________________________________________________
conv2d_11 (Conv2D)              (None, 28, 28, 4)    100         max_pooling2d_7[0][0]            
__________________________________________________________________________________________________
flatten_1 (Flatten)             (None, 3136)         0           conv2d_11[0][0]                  
__________________________________________________________________________________________________
dense_2 (Dense)                 (None, 133)          417221      flatten_1[0][0]                  
==================================================================================================
Total params: 420,085
Trainable params: 420,085
Non-trainable params: 0
```

​	After trained for **20 epochs**, training accuracy is **99.45%**, testing accuracy is only **5.38%**. The model is **overfitting**.

#### 1.3.3 Transfer Learnings
The model uses the the pre-trained model as a fixed feature extractor, where the last convolutional output is fed as input to our model. We only add a global average pooling layer and a fully connected layer, where the latter contains one node for each dog category and is equipped with a softmax.
…
